{"class_name": "Sequential", "config": [{"class_name": "Convolution2D", "config": {"b_regularizer": null, "W_constraint": null, "b_constraint": null, "name": "convolution2d_2", "activity_regularizer": null, "trainable": true, "dim_ordering": "th", "nb_col": 3, "subsample": [1, 1], "init": "glorot_uniform", "nb_filter": 64, "input_dtype": "float32", "border_mode": "valid", "batch_input_shape": [null, 24, 11, 11], "W_regularizer": null, "activation": "linear", "nb_row": 3}}, {"class_name": "Activation", "config": {"activation": "sigmoid", "trainable": true, "name": "activation_2"}}, {"class_name": "AveragePooling2D", "config": {"name": "averagepooling2d_2", "trainable": true, "dim_ordering": "th", "pool_size": [2, 2], "strides": [2, 2], "border_mode": "valid"}}, {"class_name": "Dropout", "config": {"p": 0.25, "trainable": true, "name": "dropout_3"}}, {"class_name": "Flatten", "config": {"trainable": true, "name": "flatten_2"}}, {"class_name": "Dense", "config": {"W_constraint": null, "b_constraint": null, "name": "dense_5", "activity_regularizer": null, "trainable": true, "init": "glorot_uniform", "input_dim": null, "b_regularizer": null, "W_regularizer": null, "activation": "linear", "output_dim": 128}}, {"class_name": "Dense", "config": {"W_constraint": null, "b_constraint": null, "name": "dense_6", "activity_regularizer": null, "trainable": true, "init": "glorot_uniform", "input_dim": null, "b_regularizer": null, "W_regularizer": null, "activation": "linear", "output_dim": 128}}, {"class_name": "Dropout", "config": {"p": 0.25, "trainable": true, "name": "dropout_4"}}, {"class_name": "Dense", "config": {"W_constraint": null, "b_constraint": null, "name": "dense_7", "activity_regularizer": null, "trainable": true, "init": "glorot_uniform", "input_dim": null, "b_regularizer": null, "W_regularizer": null, "activation": "linear", "output_dim": 64}}, {"class_name": "Dense", "config": {"W_constraint": null, "b_constraint": null, "name": "dense_8", "activity_regularizer": null, "trainable": true, "init": "glorot_uniform", "input_dim": null, "b_regularizer": null, "W_regularizer": null, "activation": "linear", "output_dim": 1}}]}